model.pth (torch, 974287 bytes, 8 tensors)

weight f4 [256, 784]
00000000: 3d58 eb3b 6a0b debc ea84 44bc cc7d 9a3c
00000010: 3219 833c bcaa 053d e9a4 07bd 7646 5dbc
00000020: 33af 97bc 6eb4 a03c 16fd 823b e53f 353c
00000030: 8b48 39bc 62d3 683c ace2 fdbc 4938 3bbc
00000040: 491d 46bc 60d2 013d fe91 30bc 7e14 8cbc
00000050: 57e8 1a3c 5499 7a3a 29b0 c4bb 6a6a 39bc
00000060: b878 6cbc 3cde abbc 01d7 73ba 93f2 c53c
00000070: ec91 f83b 5ed4 073d 83cf 16bb c8b4 92bc
00000080: 994c bcbb 4151 91bc ec6d 74bc 6c03 89bc
00000090: a5e0 1d39 4ac6 06bd 76cc 583c 8708 4e3b
000000a0: 085c f1bb 24af d03c 7a4c d33b bffc 1e3c
000000b0: 425e f13c 796a 03bd 3a8a ab3b f225 37bc
000000c0: e090 333c 5e5f 06bd 1514 e0bc 3bea 933c
000000d0: af7e 85bc 4ac5 bd3c 8914 8f3c 8692 ddbc
000000e0: 665e a9bc e957 f6bb 2483 913c a659 b83c
000000f0: f96d 03bd a3f4 a4bc 8b3e 94bc 3226 be3c
00000100: d506 f2bc 4a17 933b cda4 883c c3b7 b23c
00000110: fe33 50bc d903 df3c 7aff d2bc 4788 ebb8
00000120: d7a8 61bb 0bb4 d2bb 5db8 99bc 6b6a f53c
00000130: 17d5 00bd 6c54 ecbc 9937 873c 2bec 9e3c
00000140: c90c d53c 7ec6 1a3c 9c80 e5bc fa8f f4bc
00000150: caab e83c 5159 c8bb 9923 66bc 2b4e 6ebc
00000160: ded3 af3c d806 a53b 0256 4d3c ee44 ebbc
00000170: e56e 17bc 5462 a03c 1d87 a8bb bfea 52bc
00000180: c388 87bc 5bfe 873c 2e1c c5bc 8cd2 fd3c
00000190: 3136 8e3c bcad 983c d8cc 103d 1c23 4f3d
000001a0: 1cbb e5bb b0f8 22bc c5cd 9cbc 3112 e13c
000001b0: 3fc0 95bb 878d a1bc fd31 8d3c 60b9 2abc
000001c0: d61a 893b bb4e cc3c ccd7 033d 7595 e0bc
000001d0: f49e b03b 0a24 cdbc c944 793c 13de c73c
000001e0: 5b90 1d3c 31d0 443c 885c 143c 95f2 7e3c
000001f0: fcb8 d3bc eaad 60bc 1c33 f03c 20aa 3f3d
00000200: f6fd ac3c 0176 333d 42a5 133d b1f0 2f3d
00000210: b0f6 6e3c fd18 d43b 65ad bebc bdc8 0c3c
00000220: 3975 9fbc e03f 163d f6f1 b13a e235 67bc
00000230: 9d43 df3c 6ac2 09bc 7b7a bdbb 1ede 923c
00000240: a7cf da3c 8709 483c 515b 1f3c edab 1bbd
00000250: fd60 a0bc 0d29 d7bc 45d4 8b3c 4063 283d
00000260: 5182 5dba fdd0 c63a 6813 543d 53e6 0d3d
00000270: fed9 543c 40d7 df3c a45a 02bd 7118 c93c
00000280: de8d 133d eaca 113c d621 9c3c 5ad9 933c
00000290: 58d2 893c 158b 863c c3cf ebbc 800f 64bc
000002a0: e055 0e3c 095b 8aba 361b 763c 2700 c23c
000002b0: 2de8 a33b 51d7 b23c 5ceb 333c 1d4b 8cba
000002c0: 83b3 0fbd aa47 af3c eb32 7ebc e36f a13c
000002d0: 3af6 44ba b083 473d b575 263d 7471 1c3d
000002e0: 615a 103c 25ab f1ba 00c8 3a3c 7dd3 b5bc
000002f0: 533a debb 73e9 dfbc e2b4 5a3c 304e 8d3c
00000300: 8e73 853b 80bb 4a3c 0bd2 f13b c5b9 823c
00000310: 9c6b 9e3b 090b c03c 1f3d 01bd 08b0 86bb
00000320: f687 1dbb 82b7 1bbc 3097 2cbd 653a 08bb
00000330: 0e81 48bd ba24 843c ea64 eb3a 7a90 d93c
00000340: 0761 97ba 3b51 373c 52b7 053d 72d2 253c
00000350: 35c0 01bc cf69 e9bc 75ac e43c 4ca4 bebc
00000360: bc4a ba3c 46a7 d33c f6f9 d63b 083c aa3c
00000370: aafc 283c 05ba 363d 83f5 573c 37cd 03bd
00000380: 1997 80bc b682 b73b 71de 80bb 96fb 9cba
00000390: 03b8 b1bc a5a9 0cbd e54b 4ebc 507a 1fbc
000003a0: b494 103c 00ab 20bc 135e 053d 6a36 4c3c
000003b0: 6f07 0f3d c805 3c3c 1dd1 58bc e561 4b3c
000003c0: 8e26 6a3b 0bda 84bc 6f9b aabc 68e7 cc3b
000003d0: c12e 893b 3187 a33b 6067 a2ba e29d 133c
000003e0: 1bb2 b63b 8766 073d 94fa 0a3c e45c 073d
000003f0: 864a dc3b 0c83 dc3c 7c82 a03c 3249 ae3c
0.0071821497 -0.027105052 -0.01199458 0.018858813 0.016003225 0.032633528 -0.033116255 -0.013505569
-0.018516159 0.019617286 0.0039974554 0.011062597 -0.0113087995 0.014210554 -0.030991875 -0.011426994
-0.012091943 0.03169477 -0.010776995 -0.017099615 0.009454808 0.0009559591 -0.0060024452 -0.011316875
-0.0144330785 -0.020979993 -0.00093017524 0.02416352 0.0075857546 0.033161514 -0.002301187 -0.017908469
-0.005746436 -0.01773894 -0.014918786 -0.016725264 0.00015056373 -0.032903947 0.013232341 0.0031438188
-0.0073657073 0.025474139 0.0064483257 0.009703814 0.029463891 -0.032083962 0.0052349837 -0.01117848
0.010959834 -0.032805793 -0.027353326 0.018056026 -0.016295759 0.023165364 0.017465847 -0.027047407
-0.020674895 -0.007517804 0.017762728 0.022503685 -0.0320873 -0.020136183 -0.018096229 0.023211572
-0.029544273 0.0044888603 0.016680146 0.02181614 -0.012707708 0.027223514 -0.025756586 -0.00011231057
-0.0034432912 -0.006430154 -0.01876467 0.02995797 -0.03145322 -0.02884885 0.016506003 0.019399723
0.026007073 0.009446738 -0.028015427 -0.02985381 0.028402228 -0.006114163 -0.014046573 -0.014545004
0.02146333 0.005036216 0.012532713 -0.028719392 -0.009242748 0.019578137 -0.00514306 -0.012873351
-0.016544705 0.016600778 -0.024061289 0.030984186 0.017359825 0.01863753 0.035351604 0.050570592
-0.0070108306 -0.009946987 -0.019141087 0.027474495 -0.0045700367 -0.019720806 0.01723575 -0.010420173
0.0041841073 0.024939885 0.03218822 -0.027415017 0.0053900424 -0.025041599 0.015214154 0.024397885
0.009616937 0.012012527 0.009055264 0.015560766 -0.025845043 -0.013713339 0.029321246 0.046793103
0.021117192 0.04381371 0.036046274 0.04295415 0.014585182 0.0064727054 -0.02327604 0.008592782
-0.019465076 0.03668201 0.0013576138 -0.014111968 0.02725392 -0.008408168 -0.005782423 0.01792818
0.026710344 0.012209303 0.009726361 -0.038005758 -0.019577498 -0.026264692 0.017068991 0.041110277
-0.00084498996 0.0015168485 0.05177632 0.034643482 0.0129914265 0.027324319 -0.031824723 0.024547787
0.036023967 0.008898476 0.019059103 0.018047977 0.016823933 0.016423741 -0.028785592 -0.013919711
0.008687466 -0.0010555695 0.015021136 0.023681713 0.0050020427 0.021831186 0.010981407 -0.0010703538
-0.035083305 0.021396477 -0.0155150695 0.019706672 -0.0007513497 0.04870957 0.040639598 0.038194135
0.0088106105 -0.0018437846 0.011400223 -0.022195572 -0.006781855 -0.027332997 0.01334879 0.017249197
0.004072613 0.012373805 0.0073797754 0.015957722 0.0048346054 0.023442762 -0.03155243 -0.00411034
-0.0024037338 -0.009504201 -0.04213637 -0.002078676 -0.0489512 0.016130794 0.0017959152 0.02655815
-0.0011549302 0.0111888 0.03264553 0.010120975 -0.007919361 -0.028492836 0.027914265 -0.023271702
0.022740714 0.025836598 0.0065605594 0.020780578 0.010314146 0.044610996 0.013181093 -0.03217813
-0.015697049 0.0056002988 -0.003932767 -0.0011976834 -0.021694189 -0.034341473 -0.012591337 -0.009733751
0.008824516 -0.009806395 0.03256042 0.012464145 0.0349192 0.011475988 -0.01323345 0.012413477
0.0035728547 -0.016217252 -0.02082607 0.0062531717 0.0041864817 0.0049904813 -0.0012390427 0.00900981
0.005575431 0.033056762 0.008482594 0.03304757 0.006722751 0.026917957 0.01959347 0.021275137

bias f4 [256]
00000000: 429c a43b e0a0 823c 9148 573c 2ba7 6ebc
00000010: 3be4 e23c e709 a43c c86e c7bc c57d f73c
00000020: 24e7 f2bc 4409 eebb facf d23c 8b55 fc3c
00000030: 9545 0ebc 73b1 6a38 eee1 113d 4d34 2a3c
00000040: 43f0 8abc 80d6 a2bc ad03 c1bc 20e5 fdbc
00000050: 4340 40bc 8dba c83c 49fb fc3c 957c b83c
00000060: 2c86 d53c 1c36 06bd ee58 eebb 9f4f a6bc
00000070: 326f b7bc 3f41 61bc 196c b53b 741a 003d
00000080: 4802 26bc 59d1 e1b9 c8f4 c73c 71ed c8bc
00000090: 9cc1 c53c 6fd2 7c3c e48e f3bc a2d4 f5bc
000000a0: 5fe7 0d3c a852 febc 99f1 48bc f6b2 ce3c
000000b0: e9c3 be3c 1d6d d8bc 51de 1d3c 4f13 123d
000000c0: 77d3 35bc 1796 05bd 875a 94bc ce9b aebb
000000d0: 9382 223c 4903 903c 32e1 763c f541 f93c
000000e0: 80ff bfbc f61f 01bd c544 f1bc 9f5a c63b
000000f0: 78b3 fabc fe67 27bc 7f31 353b 6d71 583c
00000100: f0bb 033d 945c b5bc d4ba cc3c cafc c93c
00000110: 9fbe 9b3c 7439 40bc 36f7 44bc e296 42bc
00000120: 8c43 e2bc 15ed 0bbd 035f 9ebc 9d95 023d
00000130: f4fd d4bc d3ae bc3c 6ee2 593c e5a4 a33b
00000140: 3523 033c 2701 ea3a 161d 50bb 365e d13c
00000150: bf73 d1bc 127e 893c 7d1f 093d fe0b 00bd
00000160: 06fa 653c 2eb6 eb3b bdfc 79bc 5ee6 3e3c
00000170: 3bf0 3f3b bf36 6c3b af10 e5ba 0b5c eebc
00000180: 30a3 b2bc 2319 81bc 786e 023d cd87 85bc
00000190: 848f 37bc 66e7 fd3b 481a f7bc ff48 473c
000001a0: a35e b53c 8a85 c53c cbc2 1a3b 7617 093d
000001b0: 26e1 23ba 0255 0abd 3389 2d3c 9473 e6bc
000001c0: d52a ba3a 19b6 6a3c c66d 5cbc 7c48 9abc
000001d0: 9e80 18bc 0a2b 5b3c 7e4b 5cbc 9f3e ad3c
000001e0: 4973 96bb 5c0f 39bc 5dea e5ba 8d0f 4e3c
000001f0: 5cc8 a4bc 4ed7 a9bb fc43 e73c 95a9 a6bc
00000200: d057 9e3c 4042 45bc 6e9c 0e3d 96f1 fabb
00000210: 3dfe 063d a91b b7bb 8395 dbbb 5c24 503c
00000220: e421 b23c 21c4 1d3c 3015 583c 5bc5 363b
00000230: 5023 1c3c 019e cabc a433 0ebc 9005 f3bc
00000240: e1bb c0bc cfba d83b 206b bf3c 2d07 53bc
00000250: b20f f4bc 8c52 023d 26a8 ff3c 2cf6 b53a
00000260: f69e 4dbc 4ad2 63bc df49 113b 6883 993b
00000270: f474 14ba 1e9b 943c 8cdc 223c 39db 58bc
00000280: e0d6 e93c 1dd4 fbbb ad67 05bd a805 8c3c
00000290: dfcc bcbc 144b c33c bce1 d93c 08c7 ee3c
000002a0: 98ab 9f3b 903b 853c a7c9 06bd 53cc 32bc
000002b0: ca7b a6bc 9fe4 083d 1246 083d a275 bebc
000002c0: ac47 e83c d179 2c3b d047 da3c 35a2 56bc
000002d0: 3909 b8bc cdb6 d1bc d1c8 c3bc 85c3 ecbc
000002e0: 09d0 663c 6949 ed3c 9545 50bc ce75 ffbc
000002f0: 7c62 893c 18aa b2bc 8426 9e3c f5ee e6bc
00000300: f440 cbbc d8ad dfbc 0f4a 333c 67ec b83c
00000310: 9b4b d6bc f518 5abc c8b1 143d bdfe f43c
00000320: afea b13b 5b65 81bb c430 99bc c3a2 63bc
00000330: 5432 82bc 7cf7 303c 0a8d efbc 1456 a9bb
00000340: 3de2 913c 4f84 35bb 8e8b 0a3d 1c5a a1bc
00000350: e04c c4bc 5ad4 f3bc 5ccb f23c 141a fd3c
00000360: 2acf bfba bfdf 4a3c 5206 10bd 0bc0 953b
00000370: 3743 bf3c a210 9bbc 6306 bcbb ba21 65bc
00000380: 8e16 b83c 3e52 69bc 744f bf3b 1f8f 0a3c
00000390: 4dd6 f5bb 82e0 c1bc 4a41 9abc 3d59 e23c
000003a0: 4179 8c3b 06d4 f5bb 17de 933c d41e c2bc
000003b0: e98f b2bc 874b 153c 094c b7bc 99f5 aabc
000003c0: eb38 d03c 55b3 9fbc 57a9 46bc 800e 0f3d
000003d0: 8146 0d3d 623f 6c3c db9d 083d ae9c 5ebc
000003e0: 8827 cdbc b444 a8bc 4c93 783c 31e4 b1bc
000003f0: 4299 36ba a00a 5abc f5cf 9abc f638 05bd
0.00502351 0.015945852 0.01313986 -0.014566223 0.02769672 0.020024253 -0.024344817 0.030211339
-0.029651232 -0.007264288 0.025733937 0.030802509 -0.008683582 5.595521e-05 0.035615854 0.010388446
-0.016960269 -0.019877672 -0.023561323 -0.030993044 -0.011734071 0.024503017 0.03088154 0.022520343
0.026064955 -0.032766446 -0.007273785 -0.020301638 -0.02239189 -0.013748466 0.005536568 0.031275228
-0.01013238 -0.0004307132 0.024408713 -0.024527283 0.024140172 0.015431031 -0.029731221 -0.030008618
0.00866112 -0.031045273 -0.012264633 0.02523182 0.023286777 -0.026419217 0.009635524 0.035662945
-0.01109778 -0.03261384 -0.018109573 -0.005328632 0.009918827 0.017579691 0.015068339 0.030426959
-0.023437262 -0.03152462 -0.029451737 0.0060532833 -0.030603155 -0.010217665 0.002764791 0.013210637
0.032161653 -0.022138871 0.02499143 0.024656672 0.019011794 -0.011732448 -0.01202183 -0.011876794
-0.0276201 -0.034161646 -0.019332414 0.031880964 -0.026 0.023032581 0.013298614 0.004994022
0.0080039995 0.0017853127 -0.0031755618 0.025557619 -0.025567887 0.016783748 0.033477295 -0.031261437
0.014036661 0.0071933484 -0.015258011 0.0116516035 0.0029287476 0.0036043373 -0.0017476286 -0.029096624
-0.02180633 -0.015759056 0.031843632 -0.016300106 -0.01120365 0.007748532 -0.030163899 0.0121634
0.022139853 0.024111528 0.002361464 0.03346964 -0.0006251506 -0.033772476 0.010591793 -0.028131284
0.0014203439 0.014325642 -0.013453906 -0.018833391 -0.0093080085 0.0133769605 -0.013445733 0.021148024
-0.00459138 -0.011295166 -0.0017541159 0.01257695 -0.02011507 -0.005183137 0.02823066 -0.020344535
0.019328982 -0.012039721 0.03481715 -0.007658194 0.032957304 -0.005588014 -0.006701173 0.012703981
0.021744676 0.00962928 0.013188645 0.002788863 0.0095299035 -0.024733545 -0.008679304 -0.029665738
-0.023527088 0.006614066 0.02336651 -0.012880129 -0.02979264 0.031817004 0.03120811 0.0013882569
-0.012550106 -0.013905117 0.0022169275 0.0046848543 -0.00056631793 0.018140372 0.009940278 -0.0132358605
0.028544843 -0.007685198 -0.032569576 0.01709254 -0.023046909 0.023839511 0.026596896 0.02914764
0.0048727505 0.016263753 -0.032907154 -0.0109129725 -0.0203227 0.033421155 0.03326995 -0.023249451
0.028354488 0.0026317725 0.026645571 -0.013100197 -0.022465335 -0.025599862 -0.023899468 -0.028901825
0.014087685 0.028965669 -0.012711902 -0.031184103 0.016770594 -0.021809623 0.019305475 -0.028190115
-0.024811246 -0.027304575 0.01094295 0.022573663 -0.026159098 -0.013311614 0.036302358 0.029906625
0.005429588 -0.00394885 -0.018700011 -0.013893786 -0.015893139 0.010801192 -0.029242057 -0.005167732
0.017808074 -0.002769727 0.033824496 -0.019696288 -0.023962438 -0.029764343 0.029637985 0.030896224
-0.0014633883 0.012382447 -0.035162278 0.0045700124 0.02334748 -0.01892883 -0.005738066 -0.013985092
0.022471692 -0.0142407995 0.005838329 0.008456974 -0.0075023533 -0.023666624 -0.01882996 0.027630443
0.0042869155 -0.007502082 0.018050237 -0.02369634 -0.021797137 0.009112245 -0.022375124 -0.020869063
0.025417766 -0.019494692 -0.012125335 0.034925938 0.034491066 0.0144194085 0.033353668 -0.01358716
-0.025043264 -0.020540573 0.015171837 -0.021715255 -0.0006965586 -0.013308197 -0.01889799 -0.032525025

weight f4 [128, 256]
00000000: be84 0ebd 8fe8 f9bc eea8 563d 57ec c8bc
00000010: 7b75 073d f560 39bd c957 4c3a e8c9 61ba
00000020: 6fca febc f8eb 183d 64c7 533c c9b0 4d3d
00000030: 42d0 0e3d be0c 6d3d 3a70 583d 7bce 70bd
00000040: 44ba 853d 9006 823c 0a33 0bbd 6b47 1c3d
00000050: 32f5 52bd a518 6ebd 4362 76bd 80a2 c53d
00000060: dd5a 3a3c e7f2 9c3d 5a2a c6bc 07d2 763d
00000070: 63cb 143d d11c 493d a0d7 3ebd 40dd c3bb
00000080: 8afe 173b 5d03 76bd 0f6e 5e3a 1b99 e4bc
00000090: 5dda 533c 7e04 1abd 3837 36bd 51e6 02bc
000000a0: 9751 203d b466 283d 747c 813c d715 4cbd
000000b0: 46fa 36bb e76a 733d 222c a63c 95aa 433b
000000c0: 90e7 443d ac6c d3bc 2f3a f7bb 2d65 4f3d
000000d0: 29a5 cbbc 2ed4 8e3c da13 4a3d e10e dcbc
000000e0: 32bd e7bb acdd 9b3c 7704 ddbc fc6a 613d
000000f0: 6798 47bd c790 fb3c 1a9c 25bc c5ad 463c
00000100: ec38 863c 5986 053c 9183 183d e081 183d
00000110: 11e3 c93c 7f8b 97bc bdb3 b53c 4a71 1abd
00000120: 23cd a63c 340f a8bc f0d5 cebc e60a 053d
00000130: 43e0 64ba 1458 903d 25ee 3d3d 3d1c 09bd
00000140: 3233 82bc c62f 9a3c 0c64 e93b 8ade 5b3d
00000150: ef9d d93c 5900 343d 73ae 70bd 27d8 81bc
00000160: 4aaa 09bd 992f 0c3d ea12 41bd 2931 83bd
00000170: fdc0 233d dc88 1b3c b7ad 0abd 9db8 2f3d
00000180: 331b 63bc 0328 dcbc 1c21 aa3c a46c 9ebc
00000190: 7a22 77bd b6fc 4a3d 63f6 103d 47df 71bd
000001a0: 7e82 68bc 852a d63c 8ccc 263d 0047 403d
000001b0: 3a11 93bd 7728 223d 5e3e a43c a9ed f2bc
000001c0: ec8d 8bbc 8a19 67bd 32ed 29bd eba7 47bd
000001d0: 61b5 053d 7a6c 3a3d 61a9 75bd 4b7b 17bb
000001e0: a1b0 d13c 7c0b 5d3c 9422 70bd 9505 093c
000001f0: 6f10 0ebc b9e0 e7bb 677f 8fbc 986f 273d
00000200: 1000 6fbd 4dab e33c 0231 0abc 2ee9 7dbd
00000210: d1d2 923c e9f0 a63c 7afc 723c a320 bb3c
00000220: 0a42 30bd 5feb fdbc 9438 0f3d 254c d4bc
00000230: 8a44 b0ba a2ac 38bc 61e9 68bc 4cec 8c3c
00000240: c0f1 fc3a 43df 27bd a03d 69bd d4ca 7d3d
00000250: bce3 af3c 3114 5a3d 7d2a 5d3d 4e91 113d
00000260: b378 803a 0295 1cbc 0c86 63bc d06b cabc
00000270: e715 85bd ec0d 94bc 2aa7 91bd 6853 1c3b
00000280: 838e 023d d19f a93c 0cac fd3c 55a3 0e3d
00000290: 9627 373d cf5b f03c cae2 a9bc 2aca 303d
000002a0: 6ca9 80bd 891f 913d 802f 22bb 40ef 0e3d
000002b0: 16ce 983d 2611 fabc b712 533d b0a7 2bbd
000002c0: 105e 353d fb78 363c 28b9 e4bc 2fdb bbbc
000002d0: b2fc 113d d91c 9d3b 0ae6 2a3d b121 70bc
000002e0: be0f 3d3d 162b b43c 8488 58bc 1e19 2bbd
000002f0: 836e 2c3d 25f8 82bc 5fb0 26bd ae6a 1cbc
00000300: 7ff0 003d 233a 6dbd c621 aa3c 0919 293d
00000310: 4503 2ebb 7777 993d 5662 923c 3a3a 9abc
00000320: 8151 3ebd 75c4 93bc bc76 583d 2eb9 38bb
00000330: 65e5 233d cc6e 48bc 6a8f 2cbc d21f a8ba
00000340: 9ae8 4fbd fa49 1d3d 9e57 183d effc a7bc
00000350: f697 003c e8ee babc e1b9 15bd 49a8 5c3d
00000360: 2fbd 7a3d a77f 23bd b8dd 68bd 1f47 16bd
00000370: eef2 05bd 7be5 01bd 6933 fc3c ae08 8e3c
00000380: 1a92 9ebc 89ba c73c 15e0 f3bc 7141 a03d
00000390: 0a0b 0abd bdfd f13c 52bf 38bd df64 c9bc
000003a0: 09fe 293d 02fa 673d c19a e9bb 1caa 45bd
000003b0: e7e1 4d3d e707 01bc d0de 7c3d 716e a7bc
000003c0: d6e1 0ebd 836c c7bb acde 3d3c dc7f e838
000003d0: f3a8 5bbc 9231 56bd 22fb b2bc c5cb 763d
000003e0: 1198 64bd 4356 ba3c c9cb 993c ca8e a6bd
000003f0: 3abf 59bd 7e76 723d 0eed 883d 01dc 98bc
-0.03479456 -0.0305064 0.052407198 -0.024526758 0.033071022 -0.04525848 0.00077950634 -0.0008613155
-0.031102387 0.037334412 0.012925956 0.050217424 0.03486658 0.05787348 0.052841403 -0.058790665
0.06529668 0.01587227 -0.03398422 0.038154047 -0.051503368 -0.05812897 -0.060152303 0.09650135
0.011374203 0.076635174 -0.024190117 0.06025889 0.036326777 0.049099747 -0.046592355 -0.005977303
0.0023192489 -0.0600618 0.0008485028 -0.027905038 0.01293048 -0.03760194 -0.044486254 -0.007989482
0.03914031 0.04111357 0.015806414 -0.049825516 -0.002792017 0.059428122 0.020284716 0.0029856313
0.048072398 -0.025808655 -0.007544778 0.050633598 -0.024859028 0.01743516 0.04933534 -0.026862564
-0.0070721144 0.0190266 -0.026979668 0.05503367 -0.048729327 0.030708684 -0.010108018 0.012126391
0.016384564 0.008149707 0.037234847 0.037233233 0.024644407 -0.018499134 0.022180432 -0.037705697
0.020361489 -0.020515062 -0.025248498 0.032481097 -0.00087309274 0.070480496 0.04636969 -0.033474196
-0.015893552 0.018821608 0.007122522 0.053679027 0.026564566 0.043945644 -0.058760118 -0.01585014
-0.033609666 0.03422508 -0.04713718 -0.06405861 0.03997897 0.009493079 -0.033857074 0.04290067
-0.013861465 -0.026874548 0.02076774 -0.019338913 -0.060335614 0.04955741 0.035391223 -0.059050824
-0.014191268 0.026143322 0.040722415 0.04694271 -0.0718102 0.03958937 0.02004927 -0.02965434
-0.017035447 -0.05642084 -0.041485973 -0.048744123 0.03264368 0.045513608 -0.059975985 -0.002311426
0.025596919 0.013491508 -0.058626726 0.008363147 -0.00867091 -0.0070763496 -0.017516805 0.04087791
-0.05834967 0.027791644 -0.008434536 -0.061989956 0.01792279 0.020378547 0.014830703 0.02284271
-0.04303173 -0.030996023 0.034966066 -0.025915215 -0.0013448161 -0.011271628 -0.014215798 0.017202519
0.0019298121 -0.040984403 -0.056943536 0.06196101 0.021470897 0.053241912 0.053995598 0.035538964
0.0009801596 -0.009557011 -0.01388694 -0.024709612 -0.06498318 -0.018073045 -0.07111962 0.0023853425
0.03187419 0.02070609 0.030965827 0.034823734 0.044715486 0.029340653 -0.020738024 0.04316155
-0.06282315 0.07086093 -0.002474755 0.034896135 0.07461183 -0.030525755 0.05153152 -0.041907966
0.044279158 0.011137242 -0.02792032 -0.022931663 0.03564138 0.0047946987 0.04172329 -0.01465647
0.04615759 0.021993201 -0.013216142 -0.041772 0.04209758 -0.015987465 -0.040695544 -0.009546919
0.031479355 -0.05791677 0.020768058 0.04128364 -0.0026552242 0.07493489 0.017869156 -0.018826593
-0.046464447 -0.018038014 0.05284761 -0.0028186548 0.04001369 -0.012233447 -0.010532239 -0.0012826866
-0.050758936 0.038400628 0.037192933 -0.02050635 0.00784873 -0.022818998 -0.03655422 0.053871427
0.061215576 -0.03991666 -0.056852072 -0.03668892 -0.03270238 -0.03171299 0.030786233 0.017338123
-0.019356776 0.02438094 -0.029769937 0.07824982 -0.033701934 0.029539937 -0.045104332 -0.024584232
0.041502032 0.05663491 -0.007129044 -0.048257932 0.050264265 -0.007875419 0.061735928 -0.020438405
-0.034883343 -0.0060859337 0.011588734 0.00011086438 -0.01340698 -0.052293368 -0.021848265 0.060252924
-0.055809084 0.02274621 0.01877393 -0.081327036 -0.053160883 0.059195034 0.066858396 -0.018659594

bias f4 [128]
00000000: 1933 58bd 07f7 6dbd d593 6dbc caab 163d
00000010: c00a 633d 131d 563d 00f7 f4bc 11e7 843c
00000020: 2d5b 833c 5866 083c 5c29 053d 5888 8bbc
00000030: 2fb6 143d 2863 50bd c75a e5bc bbd3 3ebd
00000040: 6f36 8b3c 8a54 1a3d 054e 6b3d edf8 233d
00000050: 6459 553d 97dd 8c3d 6cb7 6fbd 2ff6 b7bc
00000060: f02f f5bc 645c e239 e4a6 163d 4f4b 45bd
00000070: d6ba 853c 539b 4c3d 05cb 833d ff00 d3bc
00000080: f850 2c39 4e7a 393d 7d65 b1bc 365a 203c
00000090: fe89 393d 9c3f 4a3d 53af f2bb 3c24 3d3d
000000a0: 548a 473d 7b5c 913c 7e71 4dbd 51c4 4c3d
000000b0: 0d7c 883d 7c40 36bd f616 093d b31d abbc
000000c0: 7e9f 3d3d 330d c1bb d3d3 9fbc 17c9 583d
000000d0: 1945 c8bc 3209 17bd cb1a e3bb 5b59 643d
000000e0: 9f05 203d ab6a 373d 1b16 753d 8ab5 3ebd
000000f0: 6b03 203d e8a9 743c 39aa e73c 7def 81bb
00000100: b96d 463c d5d3 22bd 50ea 20bd 7bdb 553c
00000110: da17 9dbc 9d96 3ebd 19e8 6d3d 92ba 19bd
00000120: 92dd 3bbd 1f48 15bd afd5 e63c 740c 6bbd
00000130: 0a49 523d 6cf5 da3c a00e 263d 23d3 0c3d
00000140: 4199 d73c a153 3f3b 2e5a 943b 853c 983c
00000150: b94a 3bbc a059 35bd 4ab1 333c a965 133d
00000160: 87fc 7f3d 8fb3 883c 4c3c f9bb 22ab e63a
00000170: 293e 093d 65d4 793d 5e0e c9bc 271e 28bd
00000180: 1280 d4bc 4a7c bfbc bb6a 403d 2e0a 02bd
00000190: 3dd4 913c cccd 283d c83c 0dbd 8a57 47bd
000001a0: fbf6 303c 71f1 3abd f2f1 063d 4bc9 f23c
000001b0: baaa 6a3d b174 a5bc 8bf7 06bd 5c23 803d
000001c0: 8731 9abc 3bc1 96bc d660 6b3d 3bb3 673d
000001d0: 083f bfbb 4299 0d3b 57f5 c1bc 48f6 1a3a
000001e0: abfe 523d 7f04 15bc 4f23 173d 4197 bb3b
000001f0: d6b2 0abd f45e 283a 892b c3bc 4f99 833d
-0.052783106 -0.05809691 -0.014500578 0.036784925 0.055430174 0.05227382 -0.029902935 0.016223462
0.016034687 0.008325182 0.032510146 -0.017032787 0.036306556 -0.050875813 -0.027997388 -0.04658864
0.01699373 0.03767828 0.057447452 0.040032316 0.052087203 0.068782024 -0.058524534 -0.022456257
-0.029930085 0.00043174915 0.036780253 -0.048167523 0.016324442 0.049952816 0.06435207 -0.02575731
0.00016433361 0.045282654 -0.021654839 0.009787133 0.045297615 0.04937707 -0.007406154 0.046177134
0.048715904 0.017744293 -0.050157063 0.04999191 0.06664286 -0.04449509 0.033469163 -0.020888185
0.04629468 -0.005891466 -0.019510185 0.05292615 -0.02444701 -0.036874004 -0.006930684 0.05574928
0.03906786 0.04477946 0.059835535 -0.046559848 0.03906576 0.014933087 0.02827941 -0.003965317
0.012111121 -0.0397528 -0.039285958 0.0130528165 -0.019176412 -0.046530355 0.058082674 -0.037531443
-0.045865603 -0.036445733 0.028178064 -0.057384923 0.051339187 0.026728354 0.04054129 0.034381043
0.026318194 0.0029194134 0.004527352 0.018583545 -0.0114313895 -0.044274926 0.010967562 0.035985623
0.06249669 0.016687183 -0.007606065 0.0017598609 0.033506546 0.06099357 -0.024542984 -0.04104438
-0.025939975 -0.023374695 0.046976786 -0.03174799 0.017801398 0.04121189 -0.034481794 -0.048667468
0.010801072 -0.045640413 0.03294558 0.029637 0.057291724 -0.020197244 -0.03295092 0.06256744
-0.018822445 -0.018402686 0.057465397 0.056567412 -0.0058363713 0.0021606241 -0.023676557 0.00059113326
0.0515124 -0.00909531 0.036898907 0.005724818 -0.033861957 0.00064228405 -0.02382447 0.06425726

weight f4 [64, 128]
00000000: cd19 d93d 59eb 803d 36b2 133d 99c3 dfbc
00000010: 8c59 f83d bb1a 5bbd a810 fcbd 7341 073d
00000020: 2744 77bd d8d1 c33c 96b5 163e 48dc c33d
00000030: d4aa 8abd 2a90 12bd a08a b43d e0c2 963d
00000040: a5af 083c c415 b83b 361f a5bd dcc1 4c3e
00000050: 3ac0 8abd d92e 1b3e bfb6 6ebd 8234 8b3d
00000060: 9ad6 2b3d 97ac a43d b7fb 853d 5dc5 f73d
00000070: 45db 2d3d 05c3 a8bc 5702 bdbd 34f2 d43d
00000080: 3380 84bd fde4 12bd 809a 1c3c d9db 0ebd
00000090: d1fb b13c 5148 1fbc 3966 653d eb6c 01bd
000000a0: 6de5 fb3b 260d d2bc bf1f f23c c924 f1bc
000000b0: bb78 c2bd c380 a8bd b3d5 7a3c e80e bebd
000000c0: 13d4 ae3c 151b 4c3d 2d07 e5b9 a08d df3d
000000d0: 4292 13bd a174 9dbd 8bf3 96bc 0f02 56bd
000000e0: 3015 06be 4d79 8f3d e82b 00be f796 283e
000000f0: cb86 b5bd 3bf6 0c3e 9b40 f7bc 2ed3 513d
00000100: 9175 6dbd 9344 4cbd b7b7 8fbd dc5e cdbd
00000110: 618f bbbc 0e51 a8bd 645c a2bc 2035 0fbd
00000120: 8bf5 883a c714 1d3e a25f de3d 8345 5f3d
00000130: 471f a23d 5e34 95bd df69 cc3c de8f f1bc
00000140: 34ab 3d3d b453 2abd 5950 8dbd 2eb4 20bd
00000150: 3fe3 babd c9fd 39bd 1912 45bd 21ef b33d
00000160: c798 f43d 8a0f a63d 63de 3dbd ec8c b43d
00000170: e670 013e b083 68bd aca3 7c3d 9061 653d
00000180: 77d2 d2bd 9a57 e73c 833c f8bd 475f aabc
00000190: a842 95bd 1b7a b33c af35 51bd 56cd c3ba
000001a0: b0bc afbd 6e4d f4bb 97e7 c8bd 8769 59bd
000001b0: 56b2 073e cd88 debd 0554 40bc 0ce8 083a
000001c0: a3d3 273d 7206 0e3e f131 863d 7e1f 94bc
000001d0: 93e1 8c3d 762d eb3d 7eb9 7a3e 94c9 d1bd
000001e0: 7ba8 17bd 71e5 963d dd47 eb3c 6bad 7c3d
000001f0: 9403 103d efa7 873d d588 5a3d 8280 13bd
00000200: 89c2 3ebd c6ed bd3d 9036 80bd c948 6f3d
00000210: 6db7 5dbd a94c 4abd 057b c4bd d108 9b3c
00000220: 62e9 37bd 962e 3a3c 950e c33c 612e 2d3e
00000230: eee6 afbd 51a0 88bb 0c87 98bd a99f 7bbd
00000240: 6a59 1d3d 8f0a 22bd 736a 0abd 71d8 013e
00000250: d05e 1abc 0c03 c1bb 1b79 513d b16b a1b9
00000260: 328e 463c 154f f5bd 8a82 60bd 3ad3 0d3d
00000270: 2dc5 ba3d 6fe1 58bd 6bc7 ebbd 43ac a0bd
00000280: 97a8 1a3e b796 bc3d c0bf 09bc 6bea aabd
00000290: b7c2 3c3d 5d15 693d bda5 7fbc 9367 64bd
000002a0: d38f c9bc 2e58 443d fdd5 5cbd d2ea 9bbb
000002b0: 2062 fa3b 08a2 803c f0b4 f6bd e421 263e
000002c0: 3b8f cbbc d2e3 dbbd c65c 83bd b96f 323d
000002d0: 5398 8ebd 4523 b0bd eff4 5a3c 842a 963d
000002e0: 3440 1dbd e9cf fa3d dc06 fabd 1d19 013d
000002f0: bc8c 0e3e 214b 543d 8a42 98bd f8cc d0bc
00000300: 22b9 04bd 1e42 d0bc 6a6b aa3c a666 ec3d
00000310: f0f3 c63d 879b 9fbc 64ff c2bd 4b0e 7f3d
00000320: 9e86 6abd 52f6 f6ba ba2a ca3d d2f9 a4bb
00000330: b9c2 d83d 8662 24bd 1982 093e c3dd a03d
00000340: fd4d 863d 594b 323c 6b34 90bc a501 b63d
00000350: 5def 673d d966 ca3b 26da 3d3d 7894 4ebd
00000360: 8b4a 3f3c ef36 30be 7eef a8bd 5fd4 28be
00000370: 4c1e a03d 8eb3 9fba 77f7 733d 5010 6bbb
00000380: 850e 083e 3077 9abd bc73 933d e96e c1bc
00000390: 0922 25bc e825 4dbd ffed b93b 2414 c1bd
000003a0: c9f9 823d fecd 1fbd 3ed8 3f3b 125d 99bd
000003b0: 3832 a33b 88b6 7fbd c1c3 363c 08c8 dd3c
000003c0: 72d9 acbd 0f0e 323d 4dbe 973d 1398 cdbc
000003d0: 5762 52bd 110f 9fbd f401 16be 4f69 e1bc
000003e0: a753 67bd aa90 8cbd 7f7e 8c3c b077 da3d
000003f0: 2c2d 813d 83b0 8cbd 896c 95bb 1418 c3bc
0.10600624 0.06294889 0.036058627 -0.027314948 0.12126455 -0.05349229 -0.123078644 0.0330214
-0.06036773 0.023903772 0.14717707 0.095635 -0.06770864 -0.035782017 0.08815503 0.07361388
0.008342658 0.005617829 -0.08062594 0.19995826 -0.067749456 0.1515459 -0.05827975 0.067971244
0.041952707 0.080407314 0.065421514 0.12098191 0.04244544 -0.020600805 -0.09228962 0.10397759
-0.064697646 -0.03586291 0.00955832 -0.03487763 0.02172652 -0.009721831 0.05600569 -0.031598013
0.007687262 -0.025641035 0.029556153 -0.029436486 -0.09495684 -0.08227684 0.015309739 -0.09280187
0.02134136 0.049830515 -0.0004368363 0.10915685 -0.036028154 -0.07688261 -0.018426677 -0.052248057
-0.1309402 0.07005558 -0.12516749 0.16463839 -0.088636 0.13765804 -0.030182173 0.051226787
-0.05797345 -0.049870085 -0.07017463 -0.100278586 -0.022895517 -0.08218585 -0.019819446 -0.034962773
0.0010449154 0.15339957 0.10858084 0.05450965 0.07916122 -0.07285379 0.024952827 -0.029487547
0.04630585 -0.04158373 -0.06900091 -0.039234333 -0.09125375 -0.045408044 -0.048112962 0.087858446
0.119432025 0.081084326 -0.046354663 0.08815941 0.12640724 -0.056766212 0.061679527 0.056001246
-0.10294049 0.028240014 -0.12120917 -0.020797385 -0.07288104 0.02190881 -0.051076587 -0.0014938514
-0.08580911 -0.0074555194 -0.09809797 -0.053079154 0.13251624 -0.108659364 -0.011738782 0.0005222566
0.040973317 0.13869646 0.06552494 -0.018081423 0.06878962 0.1148328 0.24484822 -0.10243526
-0.03702591 0.07367981 0.02872079 0.06168882 0.035159662 0.06623828 0.05335315 -0.036011226
-0.046572242 0.09273867 -0.06260407 0.058419023 -0.054130007 -0.049389515 -0.095937766 0.018925102
-0.044900306 0.011363646 0.023810664 0.16912223 -0.08588968 -0.004169502 -0.07447633 -0.06143156
0.03841535 -0.03956085 -0.033792924 0.12680222 -0.009422019 -0.005890256 0.051140886 -0.0003078855
0.012118863 -0.11977974 -0.05481199 0.03462527 0.091196395 -0.052949365 -0.11512645 -0.07845356
0.15103374 0.09208434 -0.008407533 -0.08345493 0.046084132 0.05690514 -0.01560348 -0.05576284
-0.024604714 0.047935657 -0.053915013 -0.0047582174 0.007641092 0.015702263 -0.1204623 0.16223866
-0.024848571 -0.10736813 -0.064141795 0.04356358 -0.06962647 -0.08600477 0.013364061 0.07332328
-0.038391307 0.12246687 -0.122083396 0.03151809 0.13920873 0.05182946 -0.07434566 -0.025488362
-0.03240312 -0.025422152 0.020803172 0.11543016 0.09714496 -0.01948334 -0.09521368 0.06226949
-0.057257287 -0.001884172 0.09871431 -0.0050346637 0.105840154 -0.04013302 0.13428535 0.07854798
0.06557844 0.010882222 -0.01760312 0.088870324 0.05662476 0.006176811 0.04635062 -0.05043456
0.011675487 -0.17208456 -0.082488045 -0.16487263 0.07818279 -0.0012184249 0.059562173 -0.0035867877
0.13286789 -0.075422645 0.07199809 -0.023612456 -0.010078915 -0.05008498 0.0056741233 -0.0942767
0.06395299 -0.03901481 0.0029273177 -0.07488455 0.004980352 -0.062429935 0.01115507 0.027072921
-0.08439912 0.04347044 0.07409344 -0.025096929 -0.051363315 -0.077665456 -0.14649183 -0.027516035
-0.05647626 -0.0686353 0.017150162 0.1066736 0.06307444 -0.068696044 -0.0045600575 -0.023815192

bias f4 [64]
00000000: 4e46 583d 27bf 62bd 4d02 a63c e0b3 79bc
00000010: b5f1 373d 001f 64bd e1b8 8fbd 0fd0 13bc
00000020: fed4 03bd b717 63bc 603c 03bd a462 a83d
00000030: c2e8 b03b c3ca 813d 36b2 b2bd ef8a 8fbb
00000040: f6b3 84bc 9515 cf3d d9ca 8d3d b2d2 b33d
00000050: 089e 873d a004 653d bc90 aa3d 047d d93b
00000060: fe22 543c 489d 983c 8504 38bd ed27 afbd
00000070: e079 ae3c d1cc 303b a938 f5bc 4d00 253c
00000080: a4aa 94bd 0aaa 5c3d 7ac1 a8bd a822 a23d
00000090: b496 bc3d 8a98 8dbd b4fc fb3c 15ed 92bd
000000a0: 849f 27bd 81e8 3a3d 4bff 5c3d 008f 143d
000000b0: 08a5 98bd 7fa3 3abd 0836 a83d 320d 253d
000000c0: 97da b0bd e474 66bc 72c1 cc3d 1404 43bd
000000d0: daa3 ed3c 9181 2a3d f86b 4cbd 6449 20bd
000000e0: d8c1 833d f18f 9fbd 2f2f 313b 079e de3d
000000f0: fa91 f4ba 3c6e 54bc ee95 423d b88b 803c
0.052801423 -0.05535808 0.020264769 -0.015240639 0.044908244 -0.055693626 -0.07017685 -0.009021773
-0.032185547 -0.0138606345 -0.03204 0.08221939 0.0053988406 0.06337502 -0.08725397 -0.004380576
-0.016199093 0.10111538 0.06923456 0.08780421 0.06621939 0.055912614 0.08328387 0.0066372175
0.012947796 0.018629685 -0.044926185 -0.08552537 0.021298349 0.002697755 -0.029934244 0.0100708725
-0.072591096 0.0538731 -0.08240028 0.079167664 0.09208432 -0.0691386 0.030760147 -0.07174126
-0.04092361 0.04563189 0.053954404 0.036269188 -0.07453352 -0.04556608 0.08213431 0.040295787
-0.08635443 -0.014065955 0.09997834 -0.04761131 0.029008795 0.04162747 -0.049907655 -0.03913249
0.06433457 -0.077911265 0.002703618 0.10869985 -0.0018659227 -0.012965735 0.047506265 0.015691623

weight f4 [10, 64]
00000000: c7c8 2cbe 8364 133e d224 35bd 6c29 063b
00000010: 13e4 47bd 1a32 bb3d de18 e53c 7940 7bbe
00000020: e415 863d 1fb0 ba3d 2782 833e 6c8f 46bd
00000030: e8b2 2c3e ebac e1bd adcf b0bd 060d 94bd
00000040: be66 eabd b203 e4bd 45ce 853c 7491 30be
00000050: 5160 51be 96c1 d23c e4af 6c3c 45b9 9d3e
00000060: d4d8 183c 3516 8bbe 8fa0 383e 9989 e33d
00000070: 32b3 54bd 6be9 9ebe a3f6 88bd 2f9c 5abe
00000080: f441 3abe e690 c93d 5725 c23c 1144 1a3d
00000090: 36ca 2a3d 42bf 443e 5e98 09be 4dc4 cdbd
000000a0: 5169 2c3d 7609 b63d b0e8 fa3c 3619 9bbe
000000b0: 24dc 173c 99f6 8ebd fa1a 313e 3fef 85be
000000c0: 7cb3 52be 9b33 273c b7c7 933e dc8f ab3d
000000d0: 1092 393e 6323 54be 2a78 e33d 74e6 ca3d
000000e0: 854f 6e3e 15fd 44be fd9c 0cbc f963 0e3e
000000f0: 25e3 8a3e 77de c33d bfa0 1e3e e285 3f3e
00000100: 53ff 1d3e efeb edbd f8ea c5bc ab20 253e
00000110: 9538 923d 4611 983d 9b9b e6bc b03a 3b3e
00000120: 89eb dc3c 2817 b83d 50d7 32be 7816 86be
00000130: 4a2e 6dbd f63c 163e e691 c9bd 490b cebd
00000140: 16d5 b23d 9129 a33c 6d94 a93d f688 df3b
00000150: 65f6 ec3d a778 093e 266d 1fbd 3555 f6bc
00000160: 0222 113e 5f01 413e 3591 caba 718a 7a3d
00000170: 37ab 8d3e bcc7 313d 4444 94bd ed99 853e
00000180: 344c 803e 168e 03bd c3d0 393e 9b12 2fbe
00000190: ccd3 60be 9216 e73c 918f a8bd f299 763d
000001a0: b67f 1b3e 55de ce3d e324 3a3e bb85 873c
000001b0: 946e 823c 7b73 0a3e f767 8fbe 009c ab3d
000001c0: 477a 383d 4633 183e d57f 9bbe 854c 21be
000001d0: dec6 933d 3419 87be d1d4 f83d 7af0 21be
000001e0: e21c 7ebe 52cf 5e3e ed38 7dbc 2aac 75be
000001f0: 8b6d a3be 4458 c8bd 317b a8be eec3 933d
00000200: 6da8 043e ba5b 0fbe e0c9 9a3d cc32 c0bc
00000210: 96c7 d93d a2bb 063d b830 efbd 765b ea3d
00000220: 4527 d6bd 2c32 84bd b995 6dbd 854b 24be
00000230: d37f 303c 0b67 28be 34b5 acbd d6f7 5f3e
00000240: 41df 96bd 1501 e3bd 9f17 51be 1f30 82bd
00000250: 2963 87be 7a3b a23e a911 8cbb 281c 01be
00000260: a882 6f3e fd9f 993c 1f1f ca3d e970 12bd
00000270: 75ad 7abd 9e54 84be 6a40 c4bd 8c2f d8bc
00000280: 7574 05bd 6df7 b03e ce65 193e b2df 3a3b
00000290: 6e5c 0e3e 5f8a 02be 2d97 c43e 9401 11bd
000002a0: 376f 363e c4ad c03d 1b1b 5ebe b36f ba3c
000002b0: cafb b7bd 886e 97be 0f5f c13e d3a4 4b3d
000002c0: a260 8cbe 47b0 793e 21d0 a53d d694 a1bd
000002d0: 9d96 133e 2be0 493e c078 0cbe cbfc 85bd
000002e0: 6175 a63e 02fa 303c 0869 183d fa87 15be
000002f0: 9a8b aa3d cb8a 10bd aa6d 2cbd 5d92 b73d
00000300: 1605 82be efe8 9bbd b6c7 983c f4d9 9f3e
00000310: 0855 bf3b 30a1 ad3b c9eb 1bbd 6eaf ec3d
00000320: aec6 5bbe 8f65 c33b 8209 4abd 96bf 09be
00000330: 853e a2bd b475 333e 5e2b 11bd fa34 37bd
00000340: 8f2f 7cbd a3e8 a7be f813 893c 03d4 7f3e
00000350: 7f36 903e f983 b03e bd16 01be 7d50 623e
00000360: d084 7c3c aa95 003e d085 abbd 953b f638
00000370: 1017 96be ae0c 3f3e f1bc e53d 37ed 8fbd
00000380: a47a 41be 0f8e 65be b3f9 37bd f1db 093e
00000390: 48f9 35be 1268 14bd ef60 f1bd da13 6e3d
000003a0: 5a67 5ebe 8eea 4dbe d03d 59be b347 b5bc
000003b0: 10ac 553d 271d 923e 0cdd 143d d78e e5bd
000003c0: 1989 2cbe 257f 5f3e 1a5b 9d3d c75f 71be
000003d0: de4d 1ebe 4110 7c3e 305d ba3e 902d ae3d
000003e0: c757 10be 7561 7d3e c546 fabd 3c5a 873e
000003f0: ce32 a9bd 69be 1a3d c343 29be bd44 1fbe
-0.16873465 0.14393811 -0.044224568 0.0020471467 -0.048801493 0.091404155 0.02796596 -0.24536313
0.06547144 0.09115624 0.25685236 -0.04847662 0.16865122 -0.110193096 -0.08633361 -0.072290465
-0.11445378 -0.11133517 0.016333709 -0.17242986 -0.20446898 0.025727075 0.0144462325 0.30805412
0.00932904 -0.2716538 0.18029998 0.11110229 -0.051928706 -0.3103746 -0.06687667 -0.21348642
-0.18189222 0.0984209 0.023699446 0.03766257 0.04169675 0.19213584 -0.1343703 -0.10047207
0.042092625 0.08888523 0.030628532 -0.30292672 0.009268794 -0.069806285 0.17295447 -0.26159093
-0.2057628 0.010205175 0.28863308 0.083770484 0.18122125 -0.20716624 0.11106904 0.09907237
0.23272522 -0.19237168 -0.008582351 0.13905324 0.27126423 0.09563916 0.15491007 0.18703416
0.1542943 -0.116172664 -0.024159893 0.16125743 0.071396984 0.0742517 -0.02815037 0.18284106
0.02696778 0.08988792 -0.17464948 -0.26189017 -0.057905473 0.14671692 -0.09842281 -0.10060746
0.08732049 0.019917281 0.08280263 0.006821747 0.115704335 0.13424931 -0.03892245 -0.030069927
0.14173129 0.1884818 -0.0015454652 0.061167184 0.2766969 0.043403372 -0.07239583 0.26094
0.25058138 -0.032117926 0.18146043 -0.17096941 -0.21955794 0.028209005 -0.08230508 0.060205407
0.15185437 0.10101 0.18178134 0.01654326 0.015921868 0.13520615 -0.28009006 0.08379364
0.045038488 0.1486331 -0.30370966 -0.15751846 0.07215665 -0.26386416 0.121499665 -0.15814391
-0.24815705 0.21758774 -0.015455467 -0.23991457 -0.31919512 -0.0978246 -0.32906488 0.07215105
0.12954874 -0.13999835 0.07558036 -0.023461722 0.10633771 0.032893784 -0.11679214 0.11443226
-0.10456709 -0.06454882 -0.058004115 -0.16044433 0.010772663 -0.16445558 -0.08432999 0.21871886
-0.07366801 -0.11084191 -0.20419167 -0.063568346 -0.2644284 0.31686002 -0.004274566 -0.12608397
0.23389685 0.018753046 0.09869217 -0.03575221 -0.061200578 -0.25845808 -0.095825985 -0.02638986
-0.032581765 0.3456377 0.14980242 0.002851468 0.13902447 -0.12748097 0.38396588 -0.035401896
0.17815863 0.09408143 -0.21690027 0.02275834 -0.08983572 -0.29576516 0.37767836 0.049717735
-0.27417475 0.2438365 0.08096338 -0.07889716 0.14412923 0.1971442 -0.13717937 -0.06542357
0.32511428 0.010801794 0.03720954 -0.14602652 0.08327408 -0.035288613 -0.04209677 0.089634635
-0.25394505 -0.07612788 0.018649917 0.31220973 0.005838994 0.005298756 -0.03806666 0.11556898
-0.21462509 0.0059630345 -0.049325474 -0.1345199 -0.07922081 0.17525369 -0.03544175 -0.044728257
-0.061568793 -0.32794675 0.016733155 0.2498322 0.28166577 0.34475687 -0.1260633 0.22101016
0.015412524 0.12557092 -0.08375132 0.00011741292 -0.2931447 0.1865718 0.11217678 -0.07027667
-0.1889444 -0.22417472 -0.044915866 0.13462807 -0.17770875 -0.03623206 -0.11786067 0.0581244
-0.21719113 -0.20109007 -0.21214986 -0.022128915 0.052166045 0.28537866 0.03634362 -0.11208885
-0.16849174 0.21825846 0.07683392 -0.23571692 -0.15459391 0.24615575 0.3639922 0.08504784
-0.14095984 0.24744208 -0.122205295 0.2643603 -0.08261643 0.037779246 -0.16529755 -0.15553565

bias f4 [10]
00000000: c1e0 743c df61 1cbe 86a7 05bd eec5 ce3d
00000010: f4e8 c3bd 0077 f9bd b295 46bc d420 2e3d
00000020: d6ca 9f3d 7e05 c0bd
0.014946164 -0.1527171 -0.032630466 0.10096346 -0.09565917 -0.121809006 -0.012120651 0.042511776
0.0780236 -0.093760476
